…
warmup_bias_lr=0.1, warmup_epochs=3.0, warmup_momentum=0.8, weight_decay=0.0005, workers=4, workspace=None\n","Downloading https://ultralytics.com/assets/Arial.ttf to '/root/.config/Ultralytics/Arial.ttf'...\n"]},{"output_type":"stream","name":"stderr","text":["100%|â–ˆâ–ˆâ–ˆâ–ˆâ–ˆâ–ˆâ–ˆâ–ˆâ–ˆâ–ˆ| 755k/755k [00:00<00:00, 83.5MB/s]"]},{"output_type":"stream","name":"stdout","text":["Overriding model.yaml nc=80 with nc=6\n","\n","                   from  n    params  module                                       arguments                     \n","  0                  -1  1      2320  ultralytics.nn.modules.conv.Conv             [3, 80, 3, 2]                 \n","  1                  -1  1    115520  ultralytics.nn.modules.conv.Conv             [80, 160, 3, 2]               \n","  2                  -1  3    436800  ultralytics.nn.modules.block.C2f             [160, 160, 3, True]           \n","  3                  -1  1    461440  ultralytics.nn.modules.conv.Conv             [160, 320, 3, 2]              \n","  4                  -1  6   3281920  ultralytics.nn.modules.block.C2f             [320, 320, 6, True]           \n","  5                  -1  1   1844480  ultralytics.nn.modules.conv.Conv             [320, 640, 3, 2]              \n","  6                  -1  6  13117440  ultralytics.nn.modules.block.C2f             [640, 640, 6, True]           \n"]},{"output_type":"stream","name":"stderr","text":["\n"]},{"output_type":"stream","name":"stdout","text":["  7                  -1  1   3687680  ultralytics.nn.modules.conv.Conv             [640, 640, 3, 2]              \n","  8                  -1  3   6969600  ultralytics.nn.modules.block.C2f             [640, 640, 3, True]           \n","  9                  -1  1   1025920  ultralytics.nn.modules.block.SPPF            [640, 640, 5]                 \n"," 10                  -1  1         0  torch.nn.modules.upsampling.Upsample         [None, 2, 'nearest']          \n"," 11             [-1, 6]  1         0  ultralytics.nn.modules.conv.Concat           [1]                           \n"," 12                  -1  3   7379200  ultralytics.nn.modules.block.C2f             [1280, 640, 3]                \n"," 13                  -1  1         0  torch.nn.modules.upsampling.Upsample         [None, 2, 'nearest']          \n"," 14             [-1, 4]  1         0  ultralytics.nn.modules.conv.Concat           [1]                           \n"," 15                  -1  3   1948800  ultralytics.nn.modules.block.C2f             [960, 320, 3]                 \n"," 16                  -1  1    922240  ultralytics.nn.modules.conv.Conv             [320, 320, 3, 2]              \n"," 17            [-1, 12]  1         0  ultralytics.nn.modules.conv.Concat           [1]                           \n"," 18                  -1  3   7174400  ultralytics.nn.modules.block.C2f             [960, 640, 3]                 \n"," 19                  -1  1   3687680  ultralytics.nn.modules.conv.Conv             [640, 640, 3, 2]              \n"," 20             [-1, 9]  1         0  ultralytics.nn.modules.conv.Concat           [1]                           \n"," 21                  -1  3   7379200  ultralytics.nn.modules.block.C2f             [1280, 640, 3]                \n"," 22        [15, 18, 21]  1   8723746  ultralytics.nn.modules.head.Detect           [6, [320, 640, 640]]          \n","Model summary: 209 layers, 68,158,386 parameters, 68,158,370 gradients, 258.1 GFLOPs\n","\n","Transferred 589/595 items from pretrained weights\n","Freezing layer 'model.22.dfl.conv.weight'\n","\u001b[34m\u001b[1mAMP: \u001b[0mrunning Automatic Mixed Precision (AMP) checks...\n","\u001b[34m\u001b[1mAMP: \u001b[0mchecks passed âœ…\n","\u001b[34m\u001b[1mtrain: \u00
…
